==> Preparing data..
Files already downloaded and verified
Files already downloaded and verified
==> Building model..
----------------------------------------------------------------
        Layer (type)               Output Shape         Param #
================================================================
            Conv2d-1           [-1, 64, 32, 32]           1,792
              ReLU-2           [-1, 64, 32, 32]               0
            Conv2d-3           [-1, 64, 32, 32]          36,928
              ReLU-4           [-1, 64, 32, 32]               0
         MaxPool2d-5           [-1, 64, 16, 16]               0
            Conv2d-6          [-1, 128, 16, 16]          73,856
              ReLU-7          [-1, 128, 16, 16]               0
            Conv2d-8          [-1, 128, 16, 16]         147,584
              ReLU-9          [-1, 128, 16, 16]               0
        MaxPool2d-10            [-1, 128, 8, 8]               0
           Conv2d-11            [-1, 256, 8, 8]         295,168
             ReLU-12            [-1, 256, 8, 8]               0
           Conv2d-13            [-1, 256, 8, 8]         590,080
             ReLU-14            [-1, 256, 8, 8]               0
           Conv2d-15            [-1, 256, 8, 8]         590,080
             ReLU-16            [-1, 256, 8, 8]               0
           Conv2d-17            [-1, 256, 8, 8]         590,080
             ReLU-18            [-1, 256, 8, 8]               0
        MaxPool2d-19            [-1, 256, 4, 4]               0
           Conv2d-20            [-1, 512, 4, 4]       1,180,160
             ReLU-21            [-1, 512, 4, 4]               0
           Conv2d-22            [-1, 512, 4, 4]       2,359,808
             ReLU-23            [-1, 512, 4, 4]               0
           Conv2d-24            [-1, 512, 4, 4]       2,359,808
             ReLU-25            [-1, 512, 4, 4]               0
           Conv2d-26            [-1, 512, 4, 4]       2,359,808
             ReLU-27            [-1, 512, 4, 4]               0
        MaxPool2d-28            [-1, 512, 2, 2]               0
           Conv2d-29            [-1, 512, 2, 2]       2,359,808
             ReLU-30            [-1, 512, 2, 2]               0
           Conv2d-31            [-1, 512, 2, 2]       2,359,808
             ReLU-32            [-1, 512, 2, 2]               0
           Conv2d-33            [-1, 512, 2, 2]       2,359,808
             ReLU-34            [-1, 512, 2, 2]               0
           Conv2d-35            [-1, 512, 2, 2]       2,359,808
             ReLU-36            [-1, 512, 2, 2]               0
        MaxPool2d-37            [-1, 512, 1, 1]               0
AdaptiveAvgPool2d-38            [-1, 512, 7, 7]               0
           Linear-39                 [-1, 4096]     102,764,544
             ReLU-40                 [-1, 4096]               0
          Dropout-41                 [-1, 4096]               0
           Linear-42                 [-1, 4096]      16,781,312
             ReLU-43                 [-1, 4096]               0
          Dropout-44                 [-1, 4096]               0
           Linear-45                 [-1, 1000]       4,097,000
================================================================
Total params: 143,667,240
Trainable params: 143,667,240
Non-trainable params: 0
----------------------------------------------------------------
Input size (MB): 0.01
Forward/backward pass size (MB): 5.25
Params size (MB): 548.05
Estimated Total Size (MB): 553.31


Epoch: 0
 [================================================================>]  Step: 705ms | Tot: 17s392ms | Loss: 1.784 | Acc: 33.898% (16949/50000) 391/391 
…
